…
Input-Token (InputLayer)        [(None, 20)]         0                                            
__________________________________________________________________________________________________
Input-Segment (InputLayer)      [(None, 20)]         0                                            
__________________________________________________________________________________________________
Embedding-Token (TokenEmbedding [(None, 20, 25), (28 700         Input-Token[0][0]                
__________________________________________________________________________________________________
Embedding-Segment (Embedding)   (None, 20, 25)       50          Input-Segment[0][0]              
__________________________________________________________________________________________________
Embedding-Token-Segment (Add)   (None, 20, 25)       0           Embedding-Token[0][0]            
                                                                 Embedding-Segment[0][0]          
__________________________________________________________________________________________________
Embedding-Position (PositionEmb (None, 20, 25)       500         Embedding-Token-Segment[0][0]    
__________________________________________________________________________________________________
Embedding-Dropout (Dropout)     (None, 20, 25)       0           Embedding-Position[0][0]         
__________________________________________________________________________________________________
Embedding-Norm (LayerNormalizat (None, 20, 25)       50          Embedding-Dropout[0][0]          
__________________________________________________________________________________________________
Encoder-1-MultiHeadSelfAttentio (None, 20, 25)       2600        Embedding-Norm[0][0]             
__________________________________________________________________________________________________
Encoder-1-MultiHeadSelfAttentio (None, 20, 25)       0           Encoder-1-MultiHeadSelfAttention[
__________________________________________________________________________________________________
Encoder-1-MultiHeadSelfAttentio (None, 20, 25)       0           Embedding-Norm[0][0]             
                                                                 Encoder-1-MultiHeadSelfAttention-
__________________________________________________________________________________________________
Encoder-1-MultiHeadSelfAttentio (None, 20, 25)       50          Encoder-1-MultiHeadSelfAttention-
__________________________________________________________________________________________________
Encoder-1-FeedForward (FeedForw (None, 20, 25)       5125        Encoder-1-MultiHeadSelfAttention-
__________________________________________________________________________________________________
Encoder-1-FeedForward-Dropout ( (None, 20, 25)       0           Encoder-1-FeedForward[0][0]      
__________________________________________________________________________________________________
Encoder-1-FeedForward-Add (Add) (None, 20, 25)       0           Encoder-1-MultiHeadSelfAttention-
                                                                 Encoder-1-FeedForward-Dropout[0][
__________________________________________________________________________________________________
Encoder-1-FeedForward-Norm (Lay (None, 20, 25)       50          Encoder-1-FeedForward-Add[0][0]  
__________________________________________________________________________________________________
Encoder-2-MultiHeadSelfAttentio (None, 20, 25)       2600        Encoder-1-FeedForward-Norm[0][0] 
__________________________________________________________________________________________________
Encoder-2-MultiHeadSelfAttentio (None, 20, 25)       0           Encoder-2-MultiHeadSelfAttention[
__________________________________________________________________________________________________
Encoder-2-MultiHeadSelfAttentio (None, 20, 25)       0           Encoder-1-FeedForward-Norm[0][0] 
                                                                 Encoder-2-MultiHeadSelfAttention-
__________________________________________________________________________________________________
Encoder-2-MultiHeadSelfAttentio (None, 20, 25)       50          Encoder-2-MultiHeadSelfAttention-
__________________________________________________________________________________________________
Encoder-2-FeedForward (FeedForw (None, 20, 25)       5125        Encoder-2-MultiHeadSelfAttention-
__________________________________________________________________________________________________
Encoder-2-FeedForward-Dropout ( (None, 20, 25)       0           Encoder-2-FeedForward[0][0]      
__________________________________________________________________________________________________
Encoder-2-FeedForward-Add (Add) (None, 20, 25)       0           Encoder-2-MultiHeadSelfAttention-
                                                                 Encoder-2-FeedForward-Dropout[0][
__________________________________________________________________________________________________
Encoder-2-FeedForward-Norm (Lay (None, 20, 25)       50          Encoder-2-FeedForward-Add[0][0]  
__________________________________________________________________________________________________
Encoder-3-MultiHeadSelfAttentio (None, 20, 25)       2600        Encoder-2-FeedForward-Norm[0][0] 
__________________________________________________________________________________________________
Encoder-3-MultiHeadSelfAttentio (None, 20, 25)       0           Encoder-3-MultiHeadSelfAttention[
__________________________________________________________________________________________________
Encoder-3-MultiHeadSelfAttentio (None, 20, 25)       0           Encoder-2-FeedForward-Norm[0][0] 
                                                                 Encoder-3-MultiHeadSelfAttention-
__________________________________________________________________________________________________
Encoder-3-MultiHeadSelfAttentio (None, 20, 25)       50          Encoder-3-MultiHeadSelfAttention-
__________________________________________________________________________________________________
Encoder-3-FeedForward (FeedForw (None, 20, 25)       5125        Encoder-3-MultiHeadSelfAttention-
__________________________________________________________________________________________________
Encoder-3-FeedForward-Dropout ( (None, 20, 25)       0           Encoder-3-FeedForward[0][0]      
__________________________________________________________________________________________________
Encoder-3-FeedForward-Add (Add) (None, 20, 25)       0           Encoder-3-MultiHeadSelfAttention-
                                                                 Encoder-3-FeedForward-Dropout[0][
__________________________________________________________________________________________________
Encoder-3-FeedForward-Norm (Lay (None, 20, 25)       50          Encoder-3-FeedForward-Add[0][0]  
__________________________________________________________________________________________________
Encoder-4-MultiHeadSelfAttentio (None, 20, 25)       2600        Encoder-3-FeedForward-Norm[0][0] 
__________________________________________________________________________________________________
Encoder-4-MultiHeadSelfAttentio (None, 20, 25)       0           Encoder-4-MultiHeadSelfAttention[
__________________________________________________________________________________________________
Encoder-4-MultiHeadSelfAttentio (None, 20, 25)       0           Encoder-3-FeedForward-Norm[0][0] 
                                                                 Encoder-4-MultiHeadSelfAttention-
__________________________________________________________________________________________________
Encoder-4-MultiHeadSelfAttentio (None, 20, 25)       50          Encoder-4-MultiHeadSelfAttention-
__________________________________________________________________________________________________
Encoder-4-FeedForward (FeedForw (None, 20, 25)       5125        Encoder-4-MultiHeadSelfAttention-
__________________________________________________________________________________________________
Encoder-4-FeedForward-Dropout ( (None, 20, 25)       0           Encoder-4-FeedForward[0][0]      
__________________________________________________________________________________________________
Encoder-4-FeedForward-Add (Add) (None, 20, 25)       0           Encoder-4-MultiHeadSelfAttention-
                                                                 Encoder-4-FeedForward-Dropout[0][
__________________________________________________________________________________________________
Encoder-4-FeedForward-Norm (Lay (None, 20, 25)       50          Encoder-4-FeedForward-Add[0][0]  
__________________________________________________________________________________________________
Encoder-5-MultiHeadSelfAttentio (None, 20, 25)       2600        Encoder-4-FeedForward-Norm[0][0] 
__________________________________________________________________________________________________
Encoder-5-MultiHeadSelfAttentio (None, 20, 25)       0           Encoder-5-MultiHeadSelfAttention[
__________________________________________________________________________________________________
Encoder-5-MultiHeadSelfAttentio (None, 20, 25)       0           Encoder-4-FeedForward-Norm[0][0] 
                                                                 Encoder-5-MultiHeadSelfAttention-
__________________________________________________________________________________________________
Encoder-5-MultiHeadSelfAttentio (None, 20, 25)       50          Encoder-5-MultiHeadSelfAttention-
__________________________________________________________________________________________________
Encoder-5-FeedForward (FeedForw (None, 20, 25)       5125        Encoder-5-MultiHeadSelfAttention-
__________________________________________________________________________________________________
Encoder-5-FeedForward-Dropout ( (None, 20, 25)       0           Encoder-5-FeedForward[0][0]      
__________________________________________________________________________________________________
Encoder-5-FeedForward-Add (Add) (None, 20, 25)       0           Encoder-5-MultiHeadSelfAttention-
                                                                 Encoder-5-FeedForward-Dropout[0][
__________________________________________________________________________________________________
Encoder-5-FeedForward-Norm (Lay (None, 20, 25)       50          Encoder-5-FeedForward-Add[0][0]  
__________________________________________________________________________________________________
Encoder-6-MultiHeadSelfAttentio (None, 20, 25)       2600        Encoder-5-FeedForward-Norm[0][0] 
__________________________________________________________________________________________________
Encoder-6-MultiHeadSelfAttentio (None, 20, 25)       0           Encoder-6-MultiHeadSelfAttention[
__________________________________________________________________________________________________
Encoder-6-MultiHeadSelfAttentio (None, 20, 25)       0           Encoder-5-FeedForward-Norm[0][0] 
                                                                 Encoder-6-MultiHeadSelfAttention-
__________________________________________________________________________________________________
Encoder-6-MultiHeadSelfAttentio (None, 20, 25)       50          Encoder-6-MultiHeadSelfAttention-
__________________________________________________________________________________________________
Encoder-6-FeedForward (FeedForw (None, 20, 25)       5125        Encoder-6-MultiHeadSelfAttention-
__________________________________________________________________________________________________
Encoder-6-FeedForward-Dropout ( (None, 20, 25)       0           Encoder-6-FeedForward[0][0]      
__________________________________________________________________________________________________
Encoder-6-FeedForward-Add (Add) (None, 20, 25)       0           Encoder-6-MultiHeadSelfAttention-
                                                                 Encoder-6-FeedForward-Dropout[0][
__________________________________________________________________________________________________
Encoder-6-FeedForward-Norm (Lay (None, 20, 25)       50          Encoder-6-FeedForward-Add[0][0]  
__________________________________________________________________________________________________
Encoder-7-MultiHeadSelfAttentio (None, 20, 25)       2600        Encoder-6-FeedForward-Norm[0][0] 
__________________________________________________________________________________________________
Encoder-7-MultiHeadSelfAttentio (None, 20, 25)       0           Encoder-7-MultiHeadSelfAttention[
__________________________________________________________________________________________________
Encoder-7-MultiHeadSelfAttentio (None, 20, 25)       0           Encoder-6-FeedForward-Norm[0][0] 
                                                                 Encoder-7-MultiHeadSelfAttention-
__________________________________________________________________________________________________
Encoder-7-MultiHeadSelfAttentio (None, 20, 25)       50          Encoder-7-MultiHeadSelfAttention-
__________________________________________________________________________________________________
Encoder-7-FeedForward (FeedForw (None, 20, 25)       5125        Encoder-7-MultiHeadSelfAttention-
__________________________________________________________________________________________________
Encoder-7-FeedForward-Dropout ( (None, 20, 25)       0           Encoder-7-FeedForward[0][0]      
__________________________________________________________________________________________________
Encoder-7-FeedForward-Add (Add) (None, 20, 25)       0           Encoder-7-MultiHeadSelfAttention-
                                                                 Encoder-7-FeedForward-Dropout[0][
__________________________________________________________________________________________________
Encoder-7-FeedForward-Norm (Lay (None, 20, 25)       50          Encoder-7-FeedForward-Add[0][0]  
__________________________________________________________________________________________________
Encoder-8-MultiHeadSelfAttentio (None, 20, 25)       2600        Encoder-7-FeedForward-Norm[0][0] 
__________________________________________________________________________________________________
Encoder-8-MultiHeadSelfAttentio (None, 20, 25)       0           Encoder-8-MultiHeadSelfAttention[
__________________________________________________________________________________________________
Encoder-8-MultiHeadSelfAttentio (None, 20, 25)       0           Encoder-7-FeedForward-Norm[0][0] 
                                                                 Encoder-8-MultiHeadSelfAttention-
__________________________________________________________________________________________________
Encoder-8-MultiHeadSelfAttentio (None, 20, 25)       50          Encoder-8-MultiHeadSelfAttention-
__________________________________________________________________________________________________
Encoder-8-FeedForward (FeedForw (None, 20, 25)       5125        Encoder-8-MultiHeadSelfAttention-
__________________________________________________________________________________________________
Encoder-8-FeedForward-Dropout ( (None, 20, 25)       0           Encoder-8-FeedForward[0][0]      
__________________________________________________________________________________________________
Encoder-8-FeedForward-Add (Add) (None, 20, 25)       0           Encoder-8-MultiHeadSelfAttention-
                                                                 Encoder-8-FeedForward-Dropout[0][
__________________________________________________________________________________________________
Encoder-8-FeedForward-Norm (Lay (None, 20, 25)       50          Encoder-8-FeedForward-Add[0][0]  
__________________________________________________________________________________________________
Encoder-9-MultiHeadSelfAttentio (None, 20, 25)       2600        Encoder-8-FeedForward-Norm[0][0] 
__________________________________________________________________________________________________
Encoder-9-MultiHeadSelfAttentio (None, 20, 25)       0           Encoder-9-MultiHeadSelfAttention[
__________________________________________________________________________________________________
Encoder-9-MultiHeadSelfAttentio (None, 20, 25)       0           Encoder-8-FeedForward-Norm[0][0] 
                                                                 Encoder-9-MultiHeadSelfAttention-
__________________________________________________________________________________________________
Encoder-9-MultiHeadSelfAttentio (None, 20, 25)       50          Encoder-9-MultiHeadSelfAttention-
__________________________________________________________________________________________________
Encoder-9-FeedForward (FeedForw (None, 20, 25)       5125        Encoder-9-MultiHeadSelfAttention-
__________________________________________________________________________________________________
Encoder-9-FeedForward-Dropout ( (None, 20, 25)       0           Encoder-9-FeedForward[0][0]      
__________________________________________________________________________________________________
Encoder-9-FeedForward-Add (Add) (None, 20, 25)       0           Encoder-9-MultiHeadSelfAttention-
                                                                 Encoder-9-FeedForward-Dropout[0][
__________________________________________________________________________________________________
Encoder-9-FeedForward-Norm (Lay (None, 20, 25)       50          Encoder-9-FeedForward-Add[0][0]  
__________________________________________________________________________________________________
Encoder-10-MultiHeadSelfAttenti (None, 20, 25)       2600        Encoder-9-FeedForward-Norm[0][0] 
__________________________________________________________________________________________________
Encoder-10-MultiHeadSelfAttenti (None, 20, 25)       0           Encoder-10-MultiHeadSelfAttention
__________________________________________________________________________________________________
Encoder-10-MultiHeadSelfAttenti (None, 20, 25)       0           Encoder-9-FeedForward-Norm[0][0] 
                                                                 Encoder-10-MultiHeadSelfAttention
__________________________________________________________________________________________________
Encoder-10-MultiHeadSelfAttenti (None, 20, 25)       50          Encoder-10-MultiHeadSelfAttention
__________________________________________________________________________________________________
Encoder-10-FeedForward (FeedFor (None, 20, 25)       5125        Encoder-10-MultiHeadSelfAttention
__________________________________________________________________________________________________
Encoder-10-FeedForward-Dropout  (None, 20, 25)       0           Encoder-10-FeedForward[0][0]     
__________________________________________________________________________________________________
Encoder-10-FeedForward-Add (Add (None, 20, 25)       0           Encoder-10-MultiHeadSelfAttention
                                                                 Encoder-10-FeedForward-Dropout[0]
__________________________________________________________________________________________________
Encoder-10-FeedForward-Norm (La (None, 20, 25)       50          Encoder-10-FeedForward-Add[0][0] 
__________________________________________________________________________________________________
Encoder-11-MultiHeadSelfAttenti (None, 20, 25)       2600        Encoder-10-FeedForward-Norm[0][0]
__________________________________________________________________________________________________
Encoder-11-MultiHeadSelfAttenti (None, 20, 25)       0           Encoder-11-MultiHeadSelfAttention
__________________________________________________________________________________________________
Encoder-11-MultiHeadSelfAttenti (None, 20, 25)       0           Encoder-10-FeedForward-Norm[0][0]
                                                                 Encoder-11-MultiHeadSelfAttention
__________________________________________________________________________________________________
Encoder-11-MultiHeadSelfAttenti (None, 20, 25)       50          Encoder-11-MultiHeadSelfAttention
__________________________________________________________________________________________________
Encoder-11-FeedForward (FeedFor (None, 20, 25)       5125        Encoder-11-MultiHeadSelfAttention
__________________________________________________________________________________________________
Encoder-11-FeedForward-Dropout  (None, 20, 25)       0           Encoder-11-FeedForward[0][0]     
__________________________________________________________________________________________________
Encoder-11-FeedForward-Add (Add (None, 20, 25)       0           Encoder-11-MultiHeadSelfAttention
                                                                 Encoder-11-FeedForward-Dropout[0]
__________________________________________________________________________________________________
Encoder-11-FeedForward-Norm (La (None, 20, 25)       50          Encoder-11-FeedForward-Add[0][0] 
__________________________________________________________________________________________________
Encoder-12-MultiHeadSelfAttenti (None, 20, 25)       2600        Encoder-11-FeedForward-Norm[0][0]
__________________________________________________________________________________________________
Encoder-12-MultiHeadSelfAttenti (None, 20, 25)       0           Encoder-12-MultiHeadSelfAttention
__________________________________________________________________________________________________
Encoder-12-MultiHeadSelfAttenti (None, 20, 25)       0           Encoder-11-FeedForward-Norm[0][0]
                                                                 Encoder-12-MultiHeadSelfAttention
__________________________________________________________________________________________________
Encoder-12-MultiHeadSelfAttenti (None, 20, 25)       50          Encoder-12-MultiHeadSelfAttention
__________________________________________________________________________________________________
Encoder-12-FeedForward (FeedFor (None, 20, 25)       5125        Encoder-12-MultiHeadSelfAttention
__________________________________________________________________________________________________
Encoder-12-FeedForward-Dropout  (None, 20, 25)       0           Encoder-12-FeedForward[0][0]     
__________________________________________________________________________________________________
Encoder-12-FeedForward-Add (Add (None, 20, 25)       0           Encoder-12-MultiHeadSelfAttention
                                                                 Encoder-12-FeedForward-Dropout[0]
__________________________________________________________________________________________________
Encoder-12-FeedForward-Norm (La (None, 20, 25)       50          Encoder-12-FeedForward-Add[0][0] 
__________________________________________________________________________________________________
MLM-Dense (Dense)               (None, 20, 25)       650         Encoder-12-FeedForward-Norm[0][0]
__________________________________________________________________________________________________
MLM-Norm (LayerNormalization)   (None, 20, 25)       50          MLM-Dense[0][0]                  
__________________________________________________________________________________________________
Extract (Extract)               (None, 25)           0           Encoder-12-FeedForward-Norm[0][0]
__________________________________________________________________________________________________
MLM-Sim (EmbeddingSimilarity)   (None, 20, 28)       28          MLM-Norm[0][0]                   
                                                                 Embedding-Token[0][1]            
__________________________________________________________________________________________________
Input-Masked (InputLayer)       [(None, 20)]         0                                            
__________________________________________________________________________________________________
NSP-Dense (Dense)               (None, 25)           650         Extract[0][0]                    
__________________________________________________________________________________________________
MLM (Masked)                    (None, 20, 28)       0           MLM-Sim[0][0]                    
                                                                 Input-Masked[0][0]               
__________________________________________________________________________________________________
NSP (Dense)                     (None, 2)            52          NSP-Dense[0][0]                  
==================================================================================================
Total params: 96,630
Trainable params: 96,630
Non-trainable params: 0
__________________________________________________________________________________________________
2022-03-14 15:26:26.398571: I tensorflow/compiler/mlir/mlir_graph_optimization_pass.cc:176] None of the MLIR Optimization Passes are enabled (registered 2)
…
